//--------------------------------------------------------------------------------------------------
// WHEN CREATING A NEW TEST, PLEASE JUST COPY & PASTE WITHOUT EDITS.
//
// Set-up that's shared across all tests in this directory. In principle, this
// config could be moved to lit.local.cfg. However, there are downstream users that
//  do not use these LIT config files. Hence why this is kept inline.
//
// DEFINE: %{sparsifier_opts} = enable-runtime-library=true
// DEFINE: %{sparsifier_opts_sve} = enable-arm-sve=true %{sparsifier_opts}
// DEFINE: %{compile} = mlir-opt %s --sparsifier="%{sparsifier_opts}"
// DEFINE: %{compile_sve} = mlir-opt %s --sparsifier="%{sparsifier_opts_sve}"
// DEFINE: %{run_libs} = -shared-libs=%mlir_c_runner_utils,%mlir_runner_utils
// DEFINE: %{run_libs_sve} = -shared-libs=%native_mlir_runner_utils,%native_mlir_c_runner_utils
// DEFINE: %{run_opts} = -e main -entry-point-result=void
// DEFINE: %{run} = mlir-runner %{run_opts} %{run_libs}
// DEFINE: %{run_sve} = %mcr_aarch64_cmd --march=aarch64 --mattr="+sve" %{run_opts} %{run_libs_sve}
//
// DEFINE: %{env} =
//--------------------------------------------------------------------------------------------------

// REDEFINE: %{sparsifier_opts} = enable-runtime-library=false

// RUN: %{compile} | %{run} | FileCheck %s
//
// Do the same run, but now with vectorization.
// REDEFINE: %{sparsifier_opts} = enable-runtime-library=false vl=2 reassociate-fp-reductions=true enable-index-optimizations=true
// RUN: %{compile} | %{run} | FileCheck %s
//
// Do the same run, but now with VLA vectorization.
// RUN: %if mlir_arm_sve_tests %{ %{compile_sve} | %{run_sve} | FileCheck %s %}

#Tensor1 = #sparse_tensor.encoding<{
  map = (d0, d1, d2) -> (d0 : compressed(nonunique), d1 : singleton(nonunique), d2 : singleton)
}>

#Tensor2 = #sparse_tensor.encoding<{
  map = (d0, d1, d2) -> (d0 : dense, d1 : compressed, d2 : dense)
}>

#Tensor3 = #sparse_tensor.encoding<{
  map = (d0, d1, d2) -> (d0 : dense, d2 : dense, d1 : compressed)
}>

module {
  //
  // Utility for output.
  //
  func.func @dump(%arg0: tensor<2x3x4xf32>) {
    %c0 = arith.constant 0 : index
    %d0 = arith.constant -1.0 : f32
    %0 = vector.transfer_read %arg0[%c0, %c0, %c0], %d0: tensor<2x3x4xf32>, vector<2x3x4xf32>
    vector.print %0 : vector<2x3x4xf32>
    return
  }

  //
  // The first test suite (for non-singleton LevelTypes).
  //
  func.func @main() {
    //
    // Initialize a 3-dim dense tensor.
    //
    %src = arith.constant dense<[
       [  [  … > : tensor<2x3x4xf64>

    //
    // Convert dense tensor directly to various sparse tensors.
    //
    %s1 = sparse_tensor.convert %src : tensor<2x3x4xf64> to tensor<2x3x4xf64, #Tensor1>
    %s2 = sparse_tensor.convert %src : tensor<2x3x4xf64> to tensor<2x3x4xf64, #Tensor2>
    %s3 = sparse_tensor.convert %src : tensor<2x3x4xf64> to tensor<2x3x4xf64, #Tensor3>

    //
    // Convert sparse tensor directly to another sparse format.
    //
    %t1 = sparse_tensor.convert %s1 : tensor<2x3x4xf64, #Tensor1> to tensor<2x3x4xf32, #Tensor1>
    %t2 = sparse_tensor.convert %s2 : tensor<2x3x4xf64, #Tensor2> to tensor<2x3x4xf32, #Tensor2>
    %t3 = sparse_tensor.convert %s3 : tensor<2x3x4xf64, #Tensor3> to tensor<2x3x4xf32, #Tensor3>

    //
    // Convert sparse tensor back to dense.
    //
    %d1 = sparse_tensor.convert %t1 : tensor<2x3x4xf32, #Tensor1> to tensor<2x3x4xf32>
    %d2 = sparse_tensor.convert %t2 : tensor<2x3x4xf32, #Tensor2> to tensor<2x3x4xf32>
    %d3 = sparse_tensor.convert %t3 : tensor<2x3x4xf32, #Tensor3> to tensor<2x3x4xf32>

    //
    // Check round-trip equality.  And release dense tensors.
    //
    // CHECK-COUNT-3: ( ( ( 1, 2, 3, 4 ), ( 5, 6, 7, 8 ), ( 9, 10, 11, 12 ) ), ( ( 13, 14, 15, 16 ), ( 17, 18, 19, 20 ), ( 21, 22, 23, 24 ) ) )
    call @dump(%d1) : (tensor<2x3x4xf32>) -> ()
    call @dump(%d2) : (tensor<2x3x4xf32>) -> ()
    call @dump(%d3) : (tensor<2x3x4xf32>) -> ()

    //
    // Release sparse tensors.
    //
    bufferization.dealloc_tensor %t1 : tensor<2x3x4xf32, #Tensor1>
    bufferization.dealloc_tensor %t2 : tensor<2x3x4xf32, #Tensor2>
    bufferization.dealloc_tensor %t3 : tensor<2x3x4xf32, #Tensor3>
    bufferization.dealloc_tensor %s1 : tensor<2x3x4xf64, #Tensor1>
    bufferization.dealloc_tensor %s2 : tensor<2x3x4xf64, #Tensor2>
    bufferization.dealloc_tensor %s3 : tensor<2x3x4xf64, #Tensor3>
    bufferization.dealloc_tensor %d1 : tensor<2x3x4xf32>
    bufferization.dealloc_tensor %d2 : tensor<2x3x4xf32>
    bufferization.dealloc_tensor %d3 : tensor<2x3x4xf32>

    return
  }
}
